ML/w2/weights.npz (npz, 82650 bytes, 2 tensors)

arr_0 (column-major) f8 [25, 401]
0	0xbf971a985a45a6e5	-0.022562389859934213
1	0xbfb92f817540cc2c	-0.09838112938523186
2	0x3fbdbc672e49ffd9	0.11615605239967354
3	0xbfceae451f6d91bd	-0.2396932986695343
4	0xbfe769799f7c5224	-0.7316253771737746
5	0xbfe322558785348a	-0.597941174209738
6	0x3fc3c89a92f47899	0.15455944228682908
7	0xbfa14415c7e6d3e2	-0.033722572948512455
8	0xbfda48d3d2a6d18a	-0.4106950337548133
9	0x3f98103119c44821	0.023499266812969325
10	0x3fcfb640bc3e2a94	0.24774941627068314
11	0x3fd0fb6d29d51776	0.2653458508033205
12	0x3fb8219516ea90a1	0.09426242646674378
13	0x3fc9e08d4b204661	0.20216528099313094
14	0xbfc9fd4922a0de4f	-0.20304216566886388
15	0x3fbac8d2db067c37	0.10462682578371206
16	0x3fc30f8418ab6360	0.1489110107857199
17	0xbfa3674d1da230b5	-0.03789750086534253
18	0xbfd5403a41c1d667	-0.332045139518732
19	0xbfd30d7555292b25	-0.297696431317194
20	0xbfdefda0d13d0cc5	-0.4842302363724225
21	0xbfd8f2112995738d	-0.3897745996562712
22	0xbfc773c61c255634	-0.18322063803013722
23	0xbfe67792b9816bae	-0.7020963309436092
24	0xbfd675b0a53961cc	-0.35093322882815126
25	0xbe46aebff1499363	-1.0562416310683364e-08
26	0x3e40740e8f4aa280	7.661686820857384e-09
27	0xbe42d8f4da2797ac	-8.776544661988575e-09
28	0xbe3b231baface50c	-6.318358054471368e-09
29	0x3e417f484c085fb8	8.147767239583285e-09
30	0xbe40ad8ee2c2b8fa	-7.766281028293993e-09
31	0xbe3b671f9247f6fc	-6.380217497119373e-09
32	0x3e414a78c8291754	8.051705306947105e-09
33	0x3e043528ac962c9c	5.881200744923719e-10
34	0xbe4332129f356970	-8.938646245644224e-09
35	0xbe44e2a5d82bf917	-9.725495746842049e-09
36	0xbe34f79fada4d1d5	-4.881825355682417e-09
37	0xbe1b2e7f7e45f940	-1.582179270491946e-09
38	0x3e466fd3a11ef378	1.0447959861739701e-08
39	0xbe44d0d6a706eba4	-9.693100739478297e-09
40	0xbe43396ff6ecd231	-8.952042410833646e-09
41	0xbe44e30626ad992d	-9.726180046857284e-09
42	0x3e3d2d019658b343	6.793021566732301e-09
43	0xbe39a2a5cc9b3ffd	-5.968693270275787e-09
44	0xbe384fe76e8f5d9b	-5.6606077403212615e-09
45	0x3e3469be1836b8c0	4.752785168395898e-09
46	0xbe2209c268592218	-2.099913856330574e-09
47	0xbe4318d3298a5117	-8.892720602679533e-09
48	0x3df4f8c135c6a385	3.051783736967543e-10
49	0x3e430628d89440b6	8.858768623640556e-09
50	0x3e22d8fadcfbf928	2.194146843272561e-09
51	0xbe44f4ec1e65349f	-9.758736885116364e-09
52	0x3e4186370db1a96a	8.160377642895991e-09
53	0x3e26b03fff7eb598	2.641286297281875e-09
54	0x3e3929cf55405cd2	5.8587919689520086e-09
55	0x3e4712d1122d61c8	1.074443695618025e-08
56	0xbe3a01402e84901e	-6.054734248942318e-09
57	0x3e3747a96e3ef9bb	5.420280866447165e-09
58	0x3e46f0ebe85c6602	1.068278200236171e-08
59	0xbe3c233be6b402ea	-6.551303148627084e-09
60	0xbe48b40058cbd03e	-1.1503291452612149e-08
61	0x3e42b4283fd56020	8.709607253007345e-09
62	0xbe4472a110d0bd66	-9.521734978684415e-09
63	0x3e36d8db26b94c34	5.319503597664685e-09
64	0x3e46f713e4389958	1.06939800409736e-08
65	0xbe10b7e6cf553684	-9.73136957588491e-10
66	0xbe44af72398df093	-9.632360507951024e-09
67	0x3e33c032f558fc1a	4.598586252729752e-09
68	0x3e13c0308055eca0	1.1496443808588284e-09
69	0xbe2a13b8ef4a0adb	-3.035767077228164e-09
70	0xbe484741f0a42bff	-1.1305487674953439e-08
71	0x3e377da41f0f2cd9	5.469374717838011e-09
72	0xbe45166d3d7a0b88	-9.819680998244774e-09
73	0x3e25fed7531f98b8	2.5606100789958845e-09
74	0xbe06979078622397	-6.575151402221569e-10
75	0xbedd08b114af91c7	-6.922233590754248e-06
76	0x3eb192bd1e311844	1.047444236916478e-06
77	0xbeb8c9902b509a21	-1.4774415551061247e-06
78	0xbeb3c3e8c4591b13	-1.1781019265842096e-06
79	0xbecd0f0e204c46e8	-3.464080011624709e-06
80	0x3edb2232ddc03a01	6.469151653489079e-06
81	0x3eda03adc63a3804	6.202309211679125e-06
82	0x3ee72a9340779094	1.1046557132972618e-05
83	0x3ececbb02e1d803d	3.6711283976504064e-06
84	0xbed1f233cc5a9abe	-4.27868434874659e-06
85	0x3ee1f00fa6999704	8.553380399688438e-06
86	0xbed5fe2228595b58	-5.243470359759073e-06
87	0x3ec6dd808204efd0	2.725749269098431e-06
88	0x3ea7003aa2570d66	6.854800786371985e-07
89	0x3ec3a3277e552324	2.3409511295296245e-06
90	0x3ebfa886993b9870	1.886981952853243e-06
91	0xbebec9c17d709a0d	-1.835114280765462e-06
92	0x3ec73ab70ebd0b6b	2.7691549941156913e-06
93	0x3e4ff2731d4b5c08	1.4876513279426324e-08
94	0xbe5808cca5d20e62	-2.2383753840478746e-08
95	0xbe7d1bd82104cad8	-1.0843860587666402e-07
96	0x3e97720ec9d4d6e0	3.493657432963848e-07
97	0xbee052e3a99c7e59	-7.783787896508526e-06
98	0xbec1c75723ce899c	-2.1193830250381556e-06
99	0xbee27d3e9d067c1c	-8.816355063610537e-06
100	0x3f1749237aed12bb	8.882788709480952e-05
101	0xbed9c1e418a844bd	-6.1410395440091586e-06
102	0x3ef6b8a3758bbe23	2.166866701974584e-05
103	0xbf12ad00d390fc1e	-7.124249977240356e-05
104	0x3efb00c564e6f780	2.5752079005895556e-05
105	0xbf1e59e7f3eb23c0	-0.00011578062274532255
106	0xbf060402ac7911ac	-4.199155005982515e-05
107	0xbf1a858b434f8adf	-0.00010117208951458287
108	0xbedabec3ada24575	-6.376546219170682e-06
109	0x3f03a62aca783f81	3.7477665781548125e-05
110	0xbf11f516895f4a8a	-6.850194981148687e-05
111	0x3ef89034b940c3ae	2.342539262673346e-05
112	0xbf057a5a383f224a	-4.096591786112833e-05
113	0xbf0745c786a32d4d	-4.4388915584637514e-05
114	0xbef973c45c07fd52	-2.4273123701232698e-05
115	0x3ec7344cc220b1de	2.766167669163011e-06
116	0x3eecedd0dbc97cf6	1.3794406975963028e-05
117	0xbef5095846ecdb12	-2.0061972857389364e-05
118	0xbee16045f6983416	-8.285554673493174e-06
119	0xbedfd1e144452123	-7.586441885650244e-06
120	0x3ed21a676dfa33a8	4.316125085457411e-06
121	0x3eb87932f92f27c6	1.4587303425067e-06
122	0x3f12bcb6fad1a397	7.147661990959533e-05
123	0x3ede8b9ac2332d30	7.282574219401401e-06
124	0x3f114b4f7cc2072f	6.597206737704303e-05
125	0xbf2fd0db2a490807	-0.0002427356277099892
126	0xbf004bcf6d2dde6f	-3.108240857490902e-05
127	0xbf13df9dfe2952b6	-7.581140338548228e-05
128	0x3f50c3394262c848	0.0010231074498219406
129	0x3f24d04066c7eceb	0.0001587942710016063
130	0x3f44690a8ce201fd	0.0006228734507801034
131	0xbf2d74dd397bc91a	-0.00022473526472983272
132	0xbf21be573b7930c8	-0.00013537230346328242
133	0xbf38c8da25ad4e17	-0.0003781826578024018
134	0x3f10c23319781b5e	6.392895590333128e-05
135	0xbf335b75581edd86	-0.00029536833619255747
136	0x3f367a8aa1435297	0.00034299740333424686
137	0x3f25d632c2430ff7	0.0001666008912534209
138	0x3f3e84a27e66e028	0.0004656693185114435
139	0x3ed82276f8d19598	5.754143683399901e-06
140	0xbf37aa7364e9db2d	-0.00036111180535363074
141	0x3f0de9f95eaad317	5.705635324685357e-05
142	0xbf1b4ceca5022ff9	-0.00010414308894918224
143	0x3f1106f5a0329539	6.49535577844266e-05
144	0x3f0b350944c0944f	5.189356360827594e-05
145	0x3ef0e2d531e990c4	1.6103807065085516e-05
146	0xbf0f6feadbca53db	-5.996165734704187e-05
147	0x3f17d1750f7c15fa	9.085919361603154e-05
148	0x3f2585bedd3e441b	0.00016420321355473184
149	0x3f31d98844a44326	0.00027236534937551333
150	0xbf663262effbfab9	-0.0027095730182503355
151	0xbf40ca8b7686b3dc	-0.0005124264690060626
152	0xbf496e07328b656f	-0.000776055826544537
153	0x3f8290fe211d2a3e	0.009065614114338701
154	0x3f40e98f6c4c8252	0.0005161238010239022
155	0x3f79c944ebcbb055	0.006295460913616398
156	0xbf600ea607f14042	-0.0019601099770980854
157	0x3f35e90e3c31ad6c	0.00033432576692034896
158	0xbf678049c153160e	-0.002868789723467164
159	0xbf23a0f76d8d244c	-0.00014975567207845192
160	0xbf3c3765862d0361	-0.00043054798713986457
161	0x3f6802c438cf38f4	0.002931006666108899
162	0x3f604e90b592713c	0.0019905878403518023
163	0x3f70011dc8e361e0	0.003907314631043296
164	0x3f123912e5e18f10	6.951501697610393e-05
165	0xbf58e88ee56cd85f	-0.001520289942801088
166	0x3f2dc34f319b124b	0.00022707311364035735
167	0xbf2036015d6a6ba3	-0.0001236797968048017
168	0x3f53698714559467	0.001184827722078974
169	0x3f519a053627b84a	0.0010743189710598227
170	0xbf51f1bd2036ad96	-0.0010952326709724228
171	0xbf373e746f6d2ebd	-0.0003546747461100444
172	0xbf308849ece201de	-0.0002522640687701287
173	0x3f54565ee6e8fcc8	0.0012412955071708243
174	0x3f5dbf1c9d39ff1b	0.0018155841288773403
175	0x3f57e17fec2f510c	0.0014575719112502354
176	0xbf50a169819e3085	-0.0010150461516529607
177	0xbf502c6453ed3a90	-0.0009871463550613947
178	0xbf57f9bc3eef3de4	-0.0014633501375448327
179	0xbf69553b695126ee	-0.0030923996332931003
180	0xbf5e698b0c3e5783	-0.0018562181366852122
181	0xbf69d02fcf467b3a	-0.0031510289938546905
182	0xbf650bc644201799	-0.0025690910706570144
183	0xbf546cdf07f00573	-0.0012466600453538673
184	0x3f72cbaffc580a4e	0.004588782734119846
185	0x3f56eb86b8efe16f	0.0013989272736108745
186	0x3f2ee531879d8b4d	0.00023571233378579873
187	0xbf539e59b99b8ed4	-0.001197421667193878
188	0x3f5e3d0391d4f904	0.0018456015453263705
189	0x3f6b26222aed4ef5	0.0033140818917817235
190	0x3f67b6a8158a6662	0.002894714631406712
191	0x3f597dc4f228634d	0.0015558646488271378
192	0xbf71988f60d7154d	-0.004295883246816357
193	0x3ee011029b1acc78	7.66107845904237e-06
194	0x3f5ffef04a9a1fb0	0.001952871951660367
195	0xbf4398c2ebe57cac	-0.0005980445637695695
196	0xbf54815b5e60a13d	-0.001251544215401592
197	0x3f609de4afe94c13	0.002028414396855202
198	0x3f6354f08b1396a7	0.0023598383055397246
199	0xbf3097b4d5622c39	-0.0002531830299480928
200	0x3f64278bfc6b635c	0.0024602636434391378
201	0xbf5083d1c4e5d990	-0.0010079906965906084
202	0x3f348d1fc433642c	0.00031358743235682346
203	0x3f672510cb2c7d37	0.002825291442959756
204	0x3f3b676d40ab3032	0.0004181520204553673
205	0xbf43cc1a994ed095	-0.0006041650655022208
206	0x3f60bf7dfb9d285e	0.002044435558592502
207	0x3f67542545ea2846	0.0028477409353558107
208	0xbf156df868e4f1d2	-8.174732849836684e-05
209	0x3f62bced37314d28	0.002287352859221454
210	0x3f557501a978bc1c	0.0013096348028616206
211	0xbf4edb975394c6e6	-0.0009417046450492488
212	0xbf3a383f8a49e31d	-0.00040008116983574084
213	0x3f5610146792231c	0.0013466071380056682
214	0x3f716bec16e4087a	0.0042533132784702225
215	0x3f568bfe05536fc5	0.001376150195304669
216	0xbf5dc033eb38dbc3	-0.0018158442516218321
217	0xbf39008bbf32a12a	-0.0003815022639153282
218	0xbf5bd5562be737a6	-0.001698812629558935
219	0x3f7285e6d3ff6351	0.004522229835821915
220	0x3f6be94f90f4c9f3	0.0034071496990233318
221	0xbf5a44acd2d72653	-0.0016032874803947508
222	0xbefbddb5b5f88f11	-2.6575139939435134e-05
223	0xbf666d9c6de8d488	-0.002737813497584233
224	0xbf5965a1ade8e67d	-0.0015501097583538175
225	0x3f47625bc0487d86	0.0007136295321891618
226	0x3f223e83c338e119	0.00013919218473446777
227	0x3f3b4c0a5dcef58e	0.00041651967131514026
228	0x3f620cd046f001fb	0.0022033756172279407
229	0x3f4997b31fd8d5ac	0.0007810234671469705
230	0x3f13b0a90dfa7bd8	7.511169269001862e-05
231	0x3f5fdde9d46ccd0c	0.0019449981206889925
232	0x3f6191ef7d350186	0.002144782783631341
233	0xbf003b162f5a1a22	-3.095780804778329e-05
234	0x3f30e28fe8d910a4	0.0002576447812752214
235	0x3f42b351e2b76915	0.0005706930000386768
236	0x3f48b963dffcc7a9	0.0007545221014650844
237	0xbf37fe011c411d15	-0.0003660919867382745
238	0x3f4c3b50d20fdc3f	0.0008615631705869499
239	0x3f4fdde32e485804	0.0009724959641654878
240	0xbf3267d9e3dd3450	-0.00028084821302771113
241	0xbf5aa12aafbf683b	-0.0016253392086498359
242	0x3f5b2ccf701be606	0.0016586328278535025
243	0xbf48520415a7b601	-0.0007421989387787488
244	0x3f61a1e46f38a14d	0.0021523915873055467
245	0x3f5d812a51222684	0.001800814938663826
246	0xbf617002bb8eb39b	-0.0021286061641689453
247	0xbf36f28daa7a871f	-0.0003501506675808053
248	0xbf611cae65d220d8	-0.002088871594029578
249	0xbf25f8e4f038b924	-0.00016763491304189985
250	0xbf42ae2b15a754e6	-0.0005700788854549304
251	0x3f659aa212e8851f	0.0026372113709533097
252	0x3f5100ca0384ad67	0.0010377857962094673
253	0x3f63d1309b3d1777	0.002419085440041376
254	0x3f4e5c763b518e42	0.0009265496543204371
255	0x3f303a31ab946543	0.0002476092591493126

arr_1 (column-major) f8 [10, 26]
0	0xbfe85a240b8eb101	-0.7610035157900087
1	0xbfe3c5710fae4543	-0.6178517633690394
2	0xbfe60f1444a9a508	-0.6893407193248615
3	0xbfe5b4d62f2402e9	-0.6783247872081947
4	0xbfe317b3e114eafb	-0.5966433902861746
5	0xbfec1828a455225b	-0.8779490670795654
6	0xbfe0e0fed9f3e08c	-0.5274652726066207
7	0xbfe7f7ef256910d6	-0.7490154009506351
8	0xbfe55459f5e620ba	-0.666546802779542
9	0xbfdd7f3dc439328d	-0.460891191124383
10	0xbff3662cb6507546	-1.2124449845935756
11	0x3fe3b2ee230d40ca	0.6155920681576614
12	0xbfff20485bdae005	-1.94538150673725
13	0x3fdda1aa4f061e70	0.4629922649114411
14	0xc0005bc988917261	-2.0448179883372153
15	0x3fdbcd64a422e68b	0.4344112017530299
16	0x3ff37345f2acee7a	1.2156428794395695
17	0xbfe71ea48650543e	-0.7224905608478662
18	0x3fe1271027eb22b4	0.5360184459360284
19	0xbff707fc3dadfd71	-1.4394495400773304
20	0xbfba143ce42916d6	-0.10187130518269369
21	0xbff43f83a02a54c0	-1.265506387372895
22	0x40001bdd8eab3136	2.013606180762646
23	0x3fe2b7b0dea21974	0.5849232052139954
24	0x400074b410d5803c	2.0569840731768902
25	0xbfedcfc0cdbd4330	-0.9316104906411962
26	0xbff803ee6ffc5e91	-1.500959813541986
27	0xc00937df7ba357d1	-3.1522817286704385
28	0x3ff4d965f0162212	1.3030757311227075
29	0xbff37d51460d67cc	-1.2180950867100249
30	0xc002f2b093036b21	-2.3685008511942134
31	0x3ffdb821e1136e62	1.8574541847255195
32	0xc008fc3c4b73b6f8	-3.123161878079255
33	0xbfc51f52aaf86646	-0.16501839969787307
34	0x3fff37554fdc94df	1.9510090941997118
35	0x3fc78a4a3fa7ce3a	0.18390777691057442
36	0xc0004170e2093c25	-2.031953588396862
37	0x3fd768e737c1d5c8	0.365777782869682
38	0xbff08a25777f3f8f	-1.0337271373609587
39	0x3fe6bff080549254	0.7109301096393872
40	0xbff0ecac1235a057	-1.057781287318013
41	0xbfed649fba14e70d	-0.9185331949622381
42	0xbfce3b0665aa7455	-0.2361762997069571
43	0x3ffeec19ef290460	1.9326419202991687
44	0x3fc693856f6f8385	0.17637699071113047
45	0xbfd7170e0f4a2f40	-0.36078216069357794
46	0xbff860f101255e3b	-1.5236673397793215
47	0x3fc95bc986565a77	0.1981136232322631
48	0xc0101f967e872c3d	-4.030847527504247
49	0x3fdcf0570e7361ff	0.45216919337465805
50	0xc001aa77ca64d5a2	-2.2082362949392556
51	0xbfac2c5a91a2c54c	-0.0550258925226311
52	0x3ff6305f2082176b	1.3868094701624283
53	0xbfcd656c07863a10	-0.22965765349768263
54	0xc0014a9277bfd0a4	-2.161412177602033
55	0x3fe3d39c515e2fe9	0.6195813740937385
56	0xc0037fa20ab1e2c3	-2.4373207889114794
57	0xbfe761121c40860c	-0.730599456004883
58	0x3fe29d9211d26125	0.5817346904832773
59	0xbfd7029a16aa1219	-0.35953380788149186
60	0x3fe20af6b4ddcb8a	0.5638383419558164
61	0xbfd8b28dc9dc81ea	-0.38589806283019235
62	0x3fed1d47d396566b	0.9098242886127087
63	0xbffd8e9a16992abd	-1.8473149187799855
64	0xbfd9da4609a4083f	-0.403947362341686
65	0x3fd8b84fbef57c5c	0.38624948166211026
66	0xc0030170a2346553	-2.37570311281585
67	0x3ffa7135c807ae92	1.6526391805336158
68	0xc00541e712916b62	-2.657179017126894
69	0x3fe3ee622b369828	0.6228495449074716
70	0x3ff360790c3c9d23	1.2110529401778158
71	0x3ff4b92c9434e948	1.2952085294078461
72	0xbff8c38f6165523c	-1.547744160129823
73	0x3fdf5e16870875c3	0.49011767565556513
74	0x3ffcd340a5d103e5	1.801575324745721
75	0xc00536476e58adc8	-2.651503431397689
76	0xbff665e0fe3032cd	-1.3998727730969904
77	0xc00267219252dd1e	-2.300357001451302
78	0x3fe9b8baa5916b7e	0.8037999376059444
79	0xbfe57112ebfdfd03	-0.670052967950966
80	0x4001aeb6feba694e	2.2103099728239277
81	0xbff9184d2b5e440c	-1.5684329694815942
82	0xbfe98bbf3e052b76	-0.7983089648563311
83	0x3ff124b3cd78ec70	1.0714605356468176
84	0xbff9012d5a1242c9	-1.562787391511096
85	0x4002607a051dc402	2.2971077346524007
86	0xbfec65326c72364c	-0.8873531454170887
87	0xbffdfeb227b6c364	-1.8746816207241972
88	0xbff17a8ca3853ae1	-1.0924192798153671
89	0xbfe69f09b0bc9eb6	-0.706913800419861
90	0x3fdc73b256a1825d	0.44456156215713866
91	0xbfef0c677eb6a1b5	-0.970264193999404
92	0xbfe4fdf039a03803	-0.6559983373169874
93	0xc00a8d6d74c78a5d	-3.319056427325718
94	0xbfd02973c1014aee	-0.2525300392928064
95	0xc000b4983b70ac60	-2.0881809848556685
96	0xbfe43fce26331b7f	-0.6327887292944608
97	0x3fef63f95e17df34	0.9809538686522274
98	0x4003fe2871e120eb	2.499100579913024
99	0x3fb02834f3a87e38	0.06311350773511826
100	0xbff2eb4f59de8e3b	-1.1824487219354427
101	0xc001777fa774fb0d	-2.1833489496779124
102	0x3fe788428fb16e22	0.7353833014016724
103	0x3ff8a87d40655f9f	1.5411350741833088
104	0x3fce30d2c616ab5c	0.2358649699429759
105	0xbffdd2384dd7e54e	-1.863823227000768
106	0x3ff812706eee3382	1.504501756021654
107	0xbff9697a803bd2a8	-1.5882515915992972
108	0x3fd72b23995aa3bf	0.36200799919111754
109	0xbff3b63beb01388e	-1.2319907359956548
110	0x3ff0afae9ab18d07	1.0428911249844661
111	0xc006cd7cd8440545	-2.8503357787855372
112	0xc004affd9b5d1bf0	-2.5859329355039264
113	0x3fd7eb0513fa4942	0.3737194724173102
114	0x3fe6ee1de437374c	0.7165669877374312
115	0x3ff0f82103923976	1.0605783595561582
116	0xbff94ace256cf8a9	-1.5807630025806623
117	0x3ff5ab61e76286f1	1.3543414152595086
118	0x3fe52eb8d6b0d739	0.6619533723048568
119	0xbffbf177ffd18771	-1.7464523308667277
120	0xbff9b07c95dcc468	-1.6055875638960746
121	0xc0009e5fa491c881	-2.077330861758185
122	0x3fde37061ea5be6d	0.47210839264787446
123	0xbfebacd338c91eb3	-0.8648468121618492
124	0x3ff13af1f8cbe7d1	1.076890918599464
125	0x3fe8d1e41b4415ce	0.7756214649713742
126	0x3fe2c072a4b4e049	0.5859921662258866
127	0x40016e7f12bbd859	2.17895331035383
128	0xbfed7dca7bd7f0a1	-0.9216053408449804
129	0xc005c1c25959a28c	-2.719608972595159
130	0x3ff4de0039e4089d	1.3041994344098733
131	0x3ffa1b29c626693d	1.6316316356884066
132	0x3fe1b63b1dcf4ef9	0.5534949857924111
133	0xc004a97115886ad4	-2.5827352220779662
134	0xbfd6b1520eedfd7b	-0.3545727868840555
135	0x400113d64e45e95d	2.134686099537403
136	0xbfe8d01c63d347a3	-0.7754041623795626
137	0xbfffe0dc52f80f33	-1.9923976174331528
138	0xbfea997d9dc49089	-0.8312366563227594
139	0xc001b7088cd5cf4f	-2.21437177684303
140	0x3ff5f2b09c75d579	1.3717504607896827
141	0x3fd6566421ffff7e	0.3490228969603705
142	0x400419b630a8515a	2.5125545312277326
143	0x3fef0f5b0b009ce9	0.9706244673624528
144	0xbffad6c173026eda	-1.6774305813368557
145	0xbff26552a5883612	-1.1497370210739786
146	0x3fee298f7ea848fa	0.9425733064438468
147	0xc000079b0155e98b	-2.003713617739043
148	0xc000041d90afa79c	-2.002009516106183
149	0xbffb16d5de4a909b	-1.6930750544789024
150	0x3ffbf8d5fbf4727e	1.7482509462344349
151	0x3ffd3f0acf5555dd	1.8278911684950494
152	0xc003557e9d541487	-2.4167454043659435
153	0xbfe053b61a6ac0e6	-0.5102186695058009
154	0xbfc08fef5b10741b	-0.1293925470971836
155	0xbfe0aa82ab48db7e	-0.5208142609979942
156	0x4000dfa26db15716	2.109196526503079
157	0xbfd8df090f42ded0	-0.3886129998240735
158	0xc007978036371385	-2.948975013309282
159	0xbfed18c5a9dacd4d	-0.90927394079919
160	0xbfcde874a55d17e5	-0.2336564834060361
161	0xc00388b0f81a4463	-2.4417437918678373
162	0xbffa3949a9fc99ad	-1.6389862670999762
163	0xbfe5e59d0208e5ba	-0.6842789687863651
164	0xbfe598afbe485673	-0.6748884884315899
165	0x3fefeafb4f88d9f9	0.9974342873964012
166	0x3fe16eee3477c46c	0.5447913193476217
167	0xc002b82d18088125	-2.3399297597499236
168	0x3fe4a9197491165d	0.6456420208639418
169	0x3fec1cdc7e3c54e0	0.8785231080570632
170	0xbff8528362e621d3	-1.5201448310127617
171	0xbfeb66d661787b61	-0.8563033965800565
172	0x3ff33e6206ea3459	1.2027302045928734
173	0xbffa5aab5aa2b68d	-1.6471360722020194
174	0x3ff2402a4e74504d	1.140665346586519
175	0xbff7bac04878c8e5	-1.4830935316973008
176	0x3fdc03de57424228	0.4377361156594213
177	0xc007566808c951e4	-2.917190617221637
178	0xbff19e4c4098ec1c	-1.1011469386419384
179	0x3ff2fc82c1ec0e44	1.1866481375772233
180	0x3ff273ada1953693	1.1532417594748139
181	0xbfd316a206a9945d	-0.2982564034521767
182	0xbff33d45238acd5f	-1.2024585140578308
183	0x3fcb137665fe8dd8	0.21153144817536318
184	0x3ff530622b908565	1.324312372373549
185	0xc00282f43be36262	-2.313942401768416
186	0xbff47bdf5527b77d	-1.2802422834751888
187	0x3fefcebcade04692	0.9939864536301732
188	0x3fe7d7e26f232d45	0.7451030893948106
189	0xbffded35c8ec33cc	-1.8704126213590255
190	0x3fba8ad38fa3ce83	0.10368082291443596
191	0xc000a2c5bf21d4b6	-2.079478734226167
192	0xbffd59f24dbb96c1	-1.8344595943867008
193	0xbfd18ce4937c30fa	-0.274224418667259
194	0x4009b15364de330d	3.2115848427114373
195	0x3fd2e41eaeda8ef0	0.2951733310276117
196	0xbfa6540a9aed4ea0	-0.043609935199723227
197	0xc005a35d3cd1ae11	-2.704767680310177
198	0x3fe2b8dec9c74747	0.5850671711907375
199	0x3fd97839990a1cab	0.3979629511381499
200	0xbfd7d01cd5a8924e	-0.3720771872051828
201	0xbff4b1744bd8f7b5	-1.2933237993997697
202	0xbffe1503795ffc4e	-1.8801302663048491
203	0x3ffb9daf9a7ec532	1.7259975466698276
204	0xc0014567962a0e5c	-2.1588889819702626
205	0xbfd8c5684a0cd7c4	-0.38704879027806904
206	0x3ff7a3d6b97f7bde	1.4774996992125504
207	0xbff457a522490281	-1.2713977183595093
208	0xbfffed5f9d79a0ab	-1.9954525138255501
209	0x3ffb89c8c0a30d5c	1.7211387181167401
210	0xbfe3b08a04e523b0	-0.6153001876456212
211	0x3feccb53fa389f75	0.8998203169949038
212	0xbfd5cbc04ca5fb06	-0.34056098447028693
213	0x3ff52fde44026ea5	1.3241865784283757
214	0xc004d0291013a731	-2.601640821075215
215	0xc001a60bae771c4a	-2.2060769682025567
216	0xbff21fd2e74314d6	-1.132769492499667
217	0x3ffdc64e665447cd	1.8609146115527324
218	0x3fe407769997ff02	0.6259110450627932
219	0xbff5e8d1a3a57eba	-1.3693405525627171
220	0xbfc01666741ab43b	-0.12568360013156785
221	0x3fd21dbfe9a24609	0.2830657750683661
222	0x3fce538d8cefd172	0.23692483312300855
223	0xc0051e66f26f342f	-2.639844793337509
224	0xc009c7faf1234074	-3.2226466025240885
225	0x3fd3a63f37f59987	0.30702190842421156
226	0xbfe74f9e4eac737c	-0.7284690414995647
227	0xbff348798ba2f0a7	-1.2051940397787264
228	0x3ffce5376375c4f1	1.8059610257299108
229	0x3feb7548820745b2	0.8580668010346726
230	0xc0022ce9d66e1db6	-2.271930384860492
231	0x40027e93c080dc59	2.311805252010839
232	0xbff0fb68beb5529b	-1.0613791894476552
233	0xbfb49f7ee0627e29	-0.08055870988982207
234	0xbffe568b6e2687a4	-1.8961290648225964
235	0xbff2d2c8ea2ffac2	-1.176461138529405
236	0x3fa83de3286b171c	0.04734716289890015
237	0xbfd8543ee14f0ee0	-0.3801419449120953
238	0xbfcc8e50fd14b5fc	-0.22309315068689262
239	0xbfcfb7c5ba107f4d	-0.2477957876699243
240	0xbfe6fcd27ae6cf4e	-0.7183620834752931
241	0xc003b72cc4f8e75d	-2.4644408596476937
242	0x3ff07104a5ea861f	1.027592323407937
243	0xc00047e6b8843399	-2.0351080336899483
244	0xbfebff05c72b6c4d	-0.87488068485562
245	0xbffa27716f682f0f	-1.6346296645960512
246	0x3ffa84f136fd49fd	1.6574566028617703
247	0x3fe6add1952d550b	0.7087181008925268
248	0xbff6788288aa9f14	-1.4044213617834815
249	0x3ff47b40e3a1ac25	1.2800911800247914
250	0xbff4c01d83d5dacd	-1.2969031476802002
251	0x3ff74e179bb64ce7	1.4565654833320936
252	0xbfde85aa76a10ec4	-0.4769083174216855
253	0xbff7613ad8c3fbff	-1.4612377612500038
254	0x40041545667f3096	2.510386276966595
255	0xbfea63c035993793	-0.8246766135068689
